p/NeuronalNetwork/nn.pth (torch, 439830 bytes, 6 tensors)

layer1.weight f4 [128, 784]
00000000: 6015 ff3a 38ca 03bc 30ac e53b 669d e73c
00000010: 68a8 acbc 30e4 f23b 48f1 f13b e850 103c
00000020: a898 cbbc b73a 01bd 9807 e2bc aa18 cabc
00000030: 6023 873a 6e04 b9bc 70a4 463c 38a4 19bc
00000040: 301d dfbb 3a06 8d3c e036 b73c 9caa 21bc
00000050: 6b6f 0c3d c812 aebb 3233 dd3c ee2c 59bc
00000060: c3f8 f0bc 241a 04bc a08d c2bc 646d 913c
00000070: 98f7 32bc 66b8 4abc 2835 d7bc 0a56 ebbc
00000080: aff2 053d 983a 00bc 081e 963c bea0 b7bc
00000090: ca51 bfbc bc2d cb3c 68c1 8a3c 743a 6a3c
000000a0: 70e3 a3bc 9c40 56bc 64e8 7a3c 7030 4b3c
000000b0: 07ce 95bc e0ee 63bc 0c4f 05bd 45b0 ffbc
000000c0: 0947 023d a030 ea3a 6e75 f73c 304f 09bb
000000d0: 30ae 0d3b 1554 e2bc d88d 183c da69 95bc
000000e0: efa4 053d 1adb cfbc 0373 0f3d d091 35bb
000000f0: a237 09bd c81f ca3c b068 aa3c 08e7 5b3c
00000100: 10e9 653c 7066 ce3b 3e2c bcbc c0a1 adbb
00000110: e5cc fdbc e855 09bd 18e7 013c 60ae 0a3c
00000120: c00e 373a 18ce 37bc e08c debc 8119 0a3d
00000130: b3c7 c4bc a445 253c 7850 54bc 1894 46bc
00000140: c00d 9e3b 9b2b 08bd 4e0d 39bc c225 913c
00000150: 4e1d d4bc 5067 733b f1df fbbc a63e 2dbc
00000160: 753c 90bc 3882 813c fe93 fcbc 24ef 133c
00000170: ca4c bc3c 8861 b83b 0308 04bd 82c3 10bd
00000180: 23ad d2bc 389a 653c 7055 1d3c bb93 09bd
00000190: 74a6 adbc a05e 33bd 1e7b 8a3b aa79 f6bc
000001a0: 3cbb a7bc 14d2 d7bb eea1 e1bc 18e9 a53b
000001b0: 56c8 00bd 45b2 d2bc 1a12 e13c 6016 e7ba
000001c0: 95f5 9dbc 90a1 da3b f2bb 6ebc 5857 0fbc
000001d0: 2639 32bc f6da ed3c 668b 943c 2085 5c3c
000001e0: 5c1e 93bb 0aac 7fbc adf8 4dbd 4ffe 85bd
000001f0: f8f4 73bd cb83 e3bb 1ad7 31bd 9424 31bd
00000200: 1758 33bc efb4 4d3b f741 41bd 05b8 c4bc
00000210: 227a 293b 1011 8bba 380a db3c 0e66 34bc
00000220: f42f 1e3c 281d b2bc 6ebd d0bc b003 6cbb
00000230: 865b 0dbd 40bb 73bc 9cc2 c83c 289d ec3b
00000240: dca1 d23c eedc f6bc 7075 21bb 0617 11bd
00000250: eb23 d8bc 6164 873d e5da bf3b 13c3 48bd
00000260: d79f 52bd 9f8d 6fbc f9a8 18bd f0cd 50bd
00000270: 4c78 86bd 04df 6dbd fece 6ebd be56 45bd
00000280: 41ce 0c3b a8d8 36bd 44ec cebc 402c 3eba
00000290: df51 0c3d 3459 213c 55de f6bc 38ce d73b
000002a0: 2047 fd3b 5367 043d a0e2 36bc 00ac 393b
000002b0: 731b f4bc 186e 33bc 2d49 8f3c 22d6 cd3c
000002c0: 50ef 7ebc 22d1 61bd 15a5 5fbd b62a 1cbd
000002d0: 5c8b 0138 8619 15bd e1a5 19bc 29e1 60bc
000002e0: 7a0a 4bbd e79c 2abd 3bf8 0ebc 488d c3bc
000002f0: cd0e 34bd 3e64 66ba 64cf 0c3d b8f3 bb3c
00000300: 640a 8c3c 4ef4 e13c 5811 253c 8e01 d33c
00000310: 0094 463b 9c67 c6bc 569c da3c 68ca b6bc
00000320: b559 443d c3fc de3c 5616 1d3d 4255 c33c
00000330: a3b9 44bd 76be dabc d70a 7dbc be8d e2bb
00000340: 5c73 53bd 4949 19bd 3247 a0bc 4653 a1bb
00000350: f8e5 2ebd 8803 0dbd f5bf 18bd f54f 853b
00000360: 0f81 82bd d13f 58bd 0878 14bd 3347 34bd
00000370: 8422 9739 db1c 5abd 8033 41bb e01f 02bb
00000380: f026 86bc a8b4 de3b c8ef e9bb 97cf dfbc
00000390: fe74 9e3c 9602 523d f0bb db3c e271 debc
000003a0: 83a8 0ebd 4410 41bd cd8c 80bd 1b96 a3bc
000003b0: fc96 3fbc 935d dbbc 5906 4bbd 97e9 24bd
000003c0: 9065 f2bb 5cf1 b5bc 27d1 e3bc f947 eabc
000003d0: 1abc 19bd bd84 67bd d0fb 73bd 729a 28bd
000003e0: 796e f7bc fd9b d7bc 1a85 8f3c 1e00 e9bc
000003f0: 9041 b93c aa82 28bc 70a6 983b 48f0 253c
0.0019461326 -0.008043818 0.0070090517 0.028273296 -0.021076396 0.007412456 0.0073834993 0.008808352
-0.024853066 -0.031550135 -0.027591512 -0.024669964 0.0010310225 -0.02258512 0.012124166 -0.009377532
-0.0068088993 0.017214883 0.022365034 -0.009867337 0.034285944 -0.0053122975 0.02700195 -0.013255341
-0.029415494 -0.008062873 -0.023749173 0.017752357 -0.010923289 -0.012373066 -0.026270464 -0.02872755
0.032702144 -0.00782647 0.018324867 -0.022415515 -0.02335443 0.024802081 0.016937926 0.014296163
-0.020005912 -0.0130769275 0.015314195 0.012401685 -0.018286718 -0.013911933 -0.032546088 -0.031211982
0.031806026 0.0017867275 0.030207362 -0.002095174 0.0021618716 -0.027627984 0.009311162 -0.01823895
0.032627996 -0.02537303 0.035021793 -0.002770532 -0.03350032 0.024673358 0.020801872 0.013421781
0.014032617 0.0062988326 -0.022970315 -0.005298823 -0.03098149 -0.033529192 0.007928632 0.008464426
0.0006983094 -0.01121857 -0.027166784 0.03371573 -0.024021005 0.010087404 -0.012958638 -0.012120269
0.0048234165 -0.03324471 -0.011294676 0.0177182 -0.02589288 0.0037140436 -0.030746432 -0.010574019
-0.017606953 0.015809163 -0.030832287 0.009029184 0.022985835 0.005626861 -0.032234203 -0.0353427
-0.025717324 0.014013819 0.009602889 -0.033588152 -0.021197535 -0.043791413 0.0042261025 -0.03008731
-0.020475022 -0.0065863226 -0.027543034 0.0050631873 -0.031441055 -0.025719771 0.027474452 -0.001763057
-0.019282142 0.006672092 -0.014571177 -0.008748852 -0.010877883 0.029035073 0.018132877 0.013459474
-0.004489703 -0.015604982 -0.050285984 -0.06542646 -0.059559792 -0.006943201 -0.043418027 -0.043247774
-0.010946295 0.0031388362 -0.04718205 -0.024013529 0.002586015 -0.0010609943 0.026738271 -0.01101066
0.009654988 -0.021742418 -0.025480952 -0.003601294 -0.03451111 -0.014876187 0.02450686 0.007220883
0.025711946 -0.030134644 -0.0024636649 -0.035422347 -0.026384315 0.06610943 0.0058549517 -0.049014162
-0.051421966 -0.014621167 -0.03727052 -0.050977647 -0.065659136 -0.058074012 -0.058302872 -0.048178427
0.0021485242 -0.044640213 -0.025259145 -0.00072545186 0.034257766 0.009847928 -0.030135313 0.0065858625
0.007729426 0.0323251 -0.01116243 0.002833128 -0.029798245 -0.010951541 0.017490948 0.02512652
-0.015559986 -0.055131085 -0.054600794 -0.03812667 3.0885785e-05 -0.036401294 -0.0093779275 -0.013725557
-0.049570538 -0.04165354 -0.008726175 -0.02387108 -0.043959428 -0.0008788741 0.03437747 0.022943363
0.017094798 0.027582314 0.010074936 0.025757577 0.0030300617 -0.024219327 0.026685875 -0.022313312
0.047937114 0.027220136 0.03835138 0.023844365 -0.0480286 -0.026702147 -0.015444479 -0.0069138696
-0.051623687 -0.037423406 -0.019565199 -0.004923257 -0.042699784 -0.034427196 -0.03729244 0.0040683695
-0.06372272 -0.052795235 -0.036247283 -0.044013213 0.0002882668 -0.053250175 -0.002948016 -0.0019855425
-0.016375989 0.0067964382 -0.00713918 -0.027320666 0.019342896 0.051271997 0.026823014 -0.027153913
-0.034828674 -0.047134653 -0.062768556 -0.019969037 -0.011693712 -0.026778018 -0.0495666 -0.04026183
-0.007397361 -0.022209816 -0.027809693 -0.028598772 -0.037532903 -0.056523073 -0.05956632 -0.041162916
-0.030204045 -0.026319498 0.017519522 -0.028442439 0.02261427 -0.010285059 0.004658513 0.010128088

layer1.bias f4 [128]
00000000: f96a 67bd d0f7 15be 2e3f 80be ef7c a6be
00000010: 5fe0 cdbb 9047 803b 8454 d8bd 0465 a03c
00000020: 1fa6 adbe 9603 75be 1814 313e 4ff5 133e
00000030: 8ba3 11be 6cd8 1dbd d516 833c 1e81 88bc
00000040: dea9 f1bd e652 863d c6ab 5cbe f4ca b0be
00000050: 92ea 06be 9c49 72bd 6ca7 3fbd 9f87 293e
00000060: b32c 96bd 27fd dbbd 7374 ce3c 2112 b63d
00000070: ddf1 b5be 02b3 3c3d 7824 9cbd 4fcf bebd
00000080: 82da 933d 8347 603d 7d8f 56be 99ea b4be
00000090: c307 e4bd 7d7e 4bbe e5fd 73bd ba4f 43be
000000a0: a685 563c e1b9 62be d7fc f43d 0a11 3cbd
000000b0: 7a4c 33be 9964 e23d d647 313c fc43 87be
000000c0: 5b41 903c feb3 52bb 0c1a 8dbd 1b00 83be
000000d0: d856 353e 009d 2cbe af0b d6bc 963c 5fbe
000000e0: 4a59 2e3e 72db 95bd 5148 6cbd d4d9 7cbe
000000f0: 9ed3 a43b b198 0cbe 48b2 553d 0c24 45be
00000100: 7e1a 0ebe 09a1 e53d 829b 82bd 8707 c4bd
00000110: 69ad 2f3e 824f 05be 383a b13d fe85 82be
00000120: eed2 86bd 9570 8e3d 1afa 59be 4c08 d7bc
00000130: 2795 643c 4590 9bbd 8709 c73d c1e5 cabd
00000140: 1127 8cbd 00fd b23d ca17 7fbe 0cd0 df3d
00000150: a01c 273e 2b1f 06bc 0e23 f13c 687a 5bbe
00000160: 65b9 9bbe 8fb9 7b3c 8d2d c73d 6717 08bc
00000170: 40b6 9e3d e91f 4d3d 1d18 8fbb 5a2b 9b3d
00000180: 863d 1c3e 8cc7 533e 6ade 893e ac43 78bd
00000190: 1f6c 05bb f31d 363c e8c0 b93b 6578 00be
000001a0: de68 8f3e 8348 193d 0211 0fbe 22c7 dc3d
000001b0: b43f 5abd adb9 67bd bbbe 6d3d 0dbc 873d
000001c0: 6c45 893c dfe4 4e3e 2e94 a2bc ed54 ffbb
000001d0: b064 6bbd 0278 d33c e255 b7bb 5634 67bc
000001e0: 8fd4 003e e94c 44bd d3c8 dbbd e4fd 2fbd
000001f0: 2e66 bebe 8cb4 703e e141 a93e 57ed 36bd
-0.0564985 -0.14645314 -0.25048202 -0.32517192 -0.0062828506 0.003914781 -0.10562995 0.019579418
-0.33915803 -0.23927149 0.17292821 0.14449047 -0.14222543 -0.038536474 0.016002098 -0.01666313
-0.11799978 0.0655878 -0.21549901 -0.3452984 -0.13175419 -0.05915223 -0.046790525 0.16555642
-0.073327444 -0.10741644 0.025202012 0.088901766 -0.3553609 0.046069153 -0.07624143 -0.09316885
0.072194114 0.0547557 -0.20953174 -0.35335234 -0.11134293 -0.1987247 -0.059568305 -0.19073382
0.013093388 -0.2214122 0.11962288 -0.045914687 -0.17509642 0.11054344 0.01082035 -0.26419055
0.017609289 -0.003215074 -0.06889734 -0.25586018 0.1770891 -0.16856766 -0.026128618 -0.21800455
0.17026249 -0.073172465 -0.057686154 -0.2469247 0.0050301095 -0.13730122 0.052171975 -0.19252032
-0.13877293 0.11212356 -0.06377317 -0.09571748 0.17155994 -0.13018611 0.086536825 -0.25492853
-0.065832004 0.06955067 -0.21286812 -0.026249073 0.013951576 -0.075958766 0.09718614 -0.09907103
-0.06843389 0.08739662 -0.24911419 0.10928354 0.16319513 -0.008186142 0.02943566 -0.21433413
-0.30414882 0.015364065 0.09725485 -0.008306361 0.07749605 0.05007926 -0.004366888 0.07576628
0.15257844 0.2068159 0.269275 -0.060611412 -0.0020358635 0.011115539 0.005668748 -0.12545927
0.28009695 0.03742267 -0.13971332 0.10780169 -0.05328341 -0.05657356 0.058043223 0.06627665
0.016756736 0.20204495 -0.019846048 -0.0077921064 -0.05746907 0.02581406 -0.005594955 -0.014111599
0.12581085 -0.04792491 -0.107316636 -0.04296674 -0.37187332 0.23506373 0.33058074 -0.04465994

layer2.weight f4 [64, 128]
00000000: 86be 13bd 5662 11bd 401f e5be 6e23 12be
00000010: f7f3 a9bd a615 19be 53af e5bb 261c 1ebe
00000020: ea77 2abe 895f 98bd 825d 28be 8f9d 99bc
00000030: 17e1 aabe ac69 b23e fada d53e 2e18 6a3d
00000040: 47c0 b5be 12d3 17bd 4073 eebd 68b8 25be
00000050: f496 c13d 9141 84bd 9da8 863d ab62 cbbd
00000060: bbb4 e5bb dc29 02be 9081 3cbc afc6 913d
00000070: eacd 523e 7397 353d 18d6 14bd 8f28 c13d
00000080: 8771 cfbd 30d1 aebe f599 213e 5edc 913c
00000090: 244b 703d ebbe aa3d 7525 92be 2c5f 6bbd
000000a0: ce57 eb3d 89c2 81be b4ff 27bd 9563 45bd
000000b0: c500 943d 5141 cdbe dfc7 0dbe 15e0 83be
000000c0: 173d d7bd 6694 393e a6cb c8be 1c78 db3c
000000d0: f202 cc3d 4416 4f3e 2275 41be 8a62 e2bd
000000e0: f856 83bd 8b18 c9bd 1c39 f2be 3ebe 1cbe
000000f0: bd8c d9bd 8131 c8bd b59e f3bd fc90 27be
00000100: 211f 673e b931 883e b018 a1bd 78b5 973e
00000110: 82cf 61be 5e23 a63d 33f2 ecbd 2488 57be
00000120: 66c5 783d d428 fdbd 11d5 2abe 11e6 29bb
00000130: b66b 3f3e e094 7e3c 1d3a 013e b7b0 d73d
00000140: 8a4c f8bd 3092 733e 3bdc 163f 63cf e73d
00000150: d8e2 debe 4062 da3d 3804 653e 51b2 ea3d
00000160: 89b0 b2bd 7a8f 463c 8f83 ad3e 3334 beba
00000170: ab75 37be 79be 073e 1bbe a2be 815e 56be
00000180: 2937 98bd e1d1 bfbd 967d 35be b3a9 9a3d
00000190: 57c0 77bd 8676 d13d dfdc 83bd a081 aabd
000001a0: a188 c9bd ee9c 5d3c ee20 aebe 806f 6d3e
000001b0: f012 be3e 649b 41bd ef0d 273e 79bf 453e
000001c0: f9a3 38be e9ef 5f3d 2ba0 c1be e28f 453d
000001d0: daca 973d 6d9c 583e 91a7 4bbe 300e 03bc
000001e0: 5c8c 6d3e 6274 7e3d 73ed e33e 009f 93bd
000001f0: 394a 44bd a71b 023e 4a6b b4be a5fb 95bd
00000200: 316f a93d c3b4 b0bd 5cfa 663d 95cd 313d
00000210: 9099 013d 6156 cfbe 2698 ad3e 039c 313d
00000220: 05b3 723e 0b2e babd 739b b7be 002d 3ebd
00000230: c791 dc3e e204 1fbe 4f32 c4be 1d9e 1cbd
00000240: 6d8e 1f3e 0f06 91be 250e 0abe 061c 0b3f
00000250: a8ce aabe 5084 873c f666 433d ba0f 87be
00000260: 8f33 7d3d 6064 663e 55a0 a0bd 46e8 e1be
00000270: 345c 7d3e b5f4 d4be 79c8 bb3e 71cf 0ebe
00000280: 1ca3 18bc 559c 25be ff99 3c3e f104 373e
00000290: f3dd 05bf df96 293e 8f29 413e 3759 6e3e
000002a0: 96c8 833d 4019 cd3e c323 263e 909d eb3c
000002b0: b202 f8bc 1e34 afbe 3b06 10be c721 eb3e
000002c0: 64e2 453d 37a0 313e 1297 c33e 546e 8cbe
000002d0: d841 d7be 0059 c93d dd42 c13d 06d6 363d
000002e0: 7bdc 8bbe a7e1 603d 2744 253e c70e c23c
000002f0: 3e48 79be 6c9e debe 3661 78be 7169 ff3d
00000300: 335a 19be 4168 ebbe bb93 a03d 2162 243e
00000310: 5478 e43d f67c 583e 921b e8be 98af a03d
00000320: 2071 1c3b 0a7d 00bf e2b7 be3d b5ed d5be
00000330: f6e3 173e 4dff c7bc 2e87 05be a642 5ebe
00000340: 55e9 9b3e e4aa 8bbe c229 2ebd 6cf2 07be
00000350: a701 2cbe 5c50 29be ce92 4abe 6379 d53d
00000360: fedd 543d a35f ccbd 1d3b fe3d e45b 48bd
00000370: 5ffa 08bd 315f 9c3d 7b71 24be 5c78 09bf
00000380: cf18 fdbd 561c 453d 65b6 68bf 1e1e 283e
00000390: 2708 473d b5e0 c43c c4d3 a43d 4b12 063e
000003a0: 440e c3be c10a e83d f810 213f 8617 5ebe
000003b0: 57be d4be f33e af3d 89de c0be ad4b 34be
000003c0: 13e4 80be 2fac 53be 177b 4e3e 55f4 b23d
000003d0: c7fc b0bd 208e a7bd 3d86 53bd e851 08bd
000003e0: 1059 b3be 458e 883b 0526 75be e8a5 523c
000003f0: f79c 583e 1763 85be 9684 d6be c5a6 3b3d
-0.03607037 -0.03549417 -0.44750404 -0.14271328 -0.08298486 -0.14949664 -0.0070094257 -0.15440425
-0.16647306 -0.07440097 -0.1644192 -0.018751888 -0.33374855 0.34846246 0.41768628 0.057151966
-0.35498258 -0.037066527 -0.11643076 -0.16183627 0.0945262 -0.06457818 0.06575129 -0.09930929
-0.00701007 -0.1271128 -0.0115054995 0.07117974 0.20586362 0.044333886 -0.03633699 0.09431564
-0.101290755 -0.34143972 0.15781386 0.017805275 0.05866541 0.08337196 -0.28544202 -0.05746381
0.11491357 -0.2534373 -0.041015342 -0.048190672 0.07226709 -0.40088895 -0.13845776 -0.257569
-0.10509699 0.18123016 -0.3921787 0.026790671 0.09961499 0.20223337 -0.18892339 -0.11053951
-0.06413072 -0.09819134 -0.47309196 -0.15306947 -0.10622547 -0.09775067 -0.11895505 -0.16363901
0.22570468 0.26600435 -0.07866037 0.29630637 -0.22051814 0.081122145 -0.11569633 -0.21048027
0.06073513 -0.12361303 -0.16682841 -0.0025924484 0.18693432 0.015538424 0.12619825 0.105317526
-0.12123974 0.23786235 0.58929795 0.11318853 -0.43532443 0.10663271 0.2236489 0.114597924
-0.08725078 0.012119168 0.33889434 -0.0014511406 -0.1791598 0.13256253 -0.31785664 -0.20934488
-0.07432396 -0.09366203 -0.17723688 0.07551899 -0.060486164 0.10227685 -0.06438612 -0.08325505
-0.09840513 0.0135261845 -0.34009498 0.23187065 0.37123823 -0.047267333 0.16313909 0.19311322
-0.180313 0.054672156 -0.3781751 0.04823292 0.07411738 0.21153422 -0.1988814 -0.007998988
0.23198074 0.06212271 0.44517097 -0.07208061 -0.047922347 0.12705861 -0.35238105 -0.07323388
0.08273161 -0.086282276 0.056391105 0.04340895 0.03164059 -0.4049559 0.33905143 0.043361675
0.23701103 -0.09090813 -0.35860786 -0.046429634 0.4307997 -0.15529206 -0.38319632 -0.038236726
0.15581675 -0.28324935 -0.13481958 0.54339635 -0.3336079 0.016542584 0.047705613 -0.26379186
0.06181675 0.22499228 -0.07843081 -0.44122523 0.24742204 -0.41592947 0.36676386 -0.1394632
-0.009316232 -0.16172917 0.1841812 0.17872979 -0.5229179 0.16561459 0.1886351 0.2327622
0.06434743 0.40058327 0.1622458 0.028761655 -0.030274723 -0.3421945 -0.14064877 0.45924208
0.048311606 0.17346273 0.38201195 -0.27427924 -0.42042422 0.098314285 0.09436581 0.044637702
-0.2731665 0.0549027 0.1613928 0.023688687 -0.24343964 -0.4348024 -0.24255833 0.12471283
-0.14975815 -0.45977977 0.07840677 0.16053058 0.11155763 0.21141419 -0.45333534 0.07845992
0.0023871139 -0.50190794 0.093124166 -0.4178292 0.14833054 -0.02441373 -0.13039848 -0.21705112
0.30451456 -0.27278817 -0.042520292 -0.1327607 -0.16797505 -0.16534561 -0.19782564 0.10423543
0.05196952 -0.09979179 0.12413619 -0.04891576 -0.033441897 0.07635344 -0.16058914 -0.5369928
-0.123582475 0.048122726 -0.9090331 0.16417739 0.04859176 0.02403293 0.080482036 0.13092916
-0.3809682 0.11330176 0.6291652 -0.21688661 -0.41551468 0.085569285 -0.3766978 -0.17606993
-0.25174007 -0.20671152 0.20164143 0.08738009 -0.086419635 -0.08181405 -0.05164169 -0.033281237
-0.35028887 0.0041673505 -0.23940285 0.012856938 0.21153627 -0.26052162 -0.4189803 0.04581334

layer2.bias f4 [64]
00000000: 8e62 59be ccfe 63be fd2d debd b688 863e
00000010: b2ee 433d 8323 813c 0c06 123c dfe0 53bd
00000020: 7f29 a73d d689 e0bd 963e b13d 9e65 8eb9
00000030: 11aa 503e ab52 76bd 6447 4cbc 77ad 28be
00000040: e678 aabb 78a4 853e b8d4 023e 5135 e03d
00000050: 7f95 6c3e cd7f 32bd ae44 1abe af4b b4bb
00000060: dcda 47bd e478 55be 6fd2 323c 27e5 4fbe
00000070: 8771 4cbe a101 ab3d 997f 1bbc 5074 33be
00000080: 9709 18be e365 173e a312 64be f232 8d3d
00000090: 7b9f 69bd f0f9 43bc 7adb 4cbd f454 95bd
000000a0: 147c 1bbe 7e65 d2bc e0bf 143e f0b8 963c
000000b0: 354b 8fbd ef5d 9a3c 9aab af3c 81fa 9c3e
000000c0: 31ed 9c3e 8181 6e3e b766 bf3d 901b 33be
000000d0: fe5a 013e c0cd e7bd 75f0 9fbd 0fc7 bcbd
000000e0: 4111 fc3e 9931 46bd c345 e83d cee2 c13d
000000f0: 31a5 d7bd 763b 78bd c224 42be 0d17 85bd
-0.21229002 -0.22265166 -0.10848615 0.26276177 0.04783506 0.015764004 0.0089125745 -0.051728126
0.081622116 -0.1096379 0.086545154 -0.0002716006 0.20377375 -0.060137432 -0.012468193 -0.16472422
-0.0052024005 0.26102042 0.12776458 0.10947669 0.23103903 -0.04357891 -0.15065262 -0.0055021862
-0.048792705 -0.20846897 0.010914429 -0.20302258 -0.19965182 0.0834992 -0.009490871 -0.17524838
-0.14847408 0.1478496 -0.22272734 0.06894483 -0.057036858 -0.011961445 -0.050013997 -0.07291594
-0.15184051 -0.02568316 0.1452632 0.018398732 -0.069967665 0.01884362 0.02144413 0.3065987
0.30649713 0.2329159 0.09345763 -0.17490983 0.12632367 -0.113185406 -0.078095354 -0.09217655
0.49231914 -0.048387144 0.11341431 0.09467088 -0.10529555 -0.06060358 -0.18959334 -0.06498537

layer3.weight f4 [10, 64]
00000000: f1ab 78be 3194 ff3e 0752 acbd 201c 22bf
00000010: fcdf 2cbf 6f6c bfbe 92c2 1cbe 1c1e b7bd
00000020: fd14 d5be 706d 46be cc60 163e 7ac5 00be
00000030: b7bb 283d 96f8 19be f10a 693e 4f3c 8cbd
00000040: fb08 0abe f4f3 50be e285 543e a598 0c3e
00000050: 0abd dcbe 80ad d5bc 1662 c53e d063 c5be
00000060: 894a 9f3b 8eba a0be 7781 583e f5ec 823e
00000070: de75 8d3d 43b9 41be 4695 99be 45bd 523e
00000080: 4935 cf3c d749 cfbe f875 633e dc16 26be
00000090: 86b3 853d 3ec4 7fbe cff9 4f3e 6e2f 0abc
000000a0: d14a b23c 7b1f 863c ea99 dbbd a735 b6bd
000000b0: 423c c8be 9ddd 0fbf 0afe a1bd ea65 663e
000000c0: c607 63bc fff0 283e f914 a03e 5cef 893e
000000d0: 0417 e0be a7ed 203d 8a93 ba3e f546 f5be
000000e0: e497 26bf 55ae a6bb 9f68 94be da8a 59bd
000000f0: 78c1 213e 4576 833c 9da5 793d 5d8e e4bd
00000100: b33f 843e c293 32be 5bef 97bd e155 ad3d
00000110: 8910 96be 85ee aa3e d33d c33d dd99 85bd
00000120: 086b 3438 6378 ca3e 6165 12bf 763f ffbd
00000130: d7c3 60be 0b10 84bd 5bae 98be 54cb 983d
00000140: 0bec e9be 9e46 d2be 2fcd 09bf 4c0a cdbe
00000150: 7fa3 edb9 c708 9d3e dffa a8be d605 c6bd
00000160: 4b8b 55bd e5ed 073e 00f6 f0be e908 c7bd
00000170: 4a4d 9bbe e991 f13e ee69 b5bb a021 ffbd
00000180: 076e a83e a2a0 de3c f10d d9bd 430b c53d
00000190: c68e 8abe abae 653e 291f 5f3e cf1e 71be
000001a0: 4b6f a6be 1f7b 8cbe 00b8 bd3d 1470 6b3d
000001b0: 8389 b33e 907c 663e 11ba 4abd 22ef 37be
000001c0: ff52 05bf db5d 3dbf a057 e5be a9c8 73be
000001d0: 86a3 353e f2a0 bdbe baad f0be 9c77 90be
000001e0: 840c 083e ce85 83bd eaae fd3d ba5c b4be
000001f0: 8982 2b3e 44bb abbc 2814 8ebe c20f bcbd
00000200: a496 47bd 6c64 903d 43df 55bd 96ca 943e
00000210: 3489 f9bd d96e 2ebf dcaa 233e 3d9e 77bd
00000220: b427 bbbe d668 cabe e8c3 8d3e 3f8b 8abd
00000230: 2ebd 423e e156 933e 79b3 443e 7971 c53b
00000240: 082b d2be eb5a d2bc 82ba 5dbe f46b c5be
00000250: 937e afbe 6f8d f5be 621e d5bb cd72 b93e
00000260: b30d e5bd b6e9 17bd 30b5 9e3e 5a89 9fbe
00000270: 4007 ed3d 02ee 9cbe 8171 de3c 6281 293e
00000280: 2668 c5be e212 a9be c134 c9be af8f a9bd
00000290: 677f 39be bd63 cd3c 4639 ef3d ff69 8e3e
000002a0: fe06 893e aec1 58be 01bd 013b e955 d5be
000002b0: ece3 903e b353 943e 1e57 2d3d c740 48bf
000002c0: 9f45 75be af78 42bf e55c cdbb 8057 483e
000002d0: bbac a4bb fba2 3e3e a1d9 46be 0f93 493e
000002e0: 06c3 91be 1839 943d 95c5 bcbe d821 58be
000002f0: 001f 853e cbd7 62bd 28af ef3e 9363 313d
00000300: 4d6e 6cbe 2ec1 a0bd 2ace 19be 057e 183d
00000310: 23d6 983e aad8 0bbf c3c7 3b3e 7d06 9c3d
00000320: 66e6 0fbe bab6 3d3e 0537 c63d f3aa babd
00000330: 5870 3dbe 89fb 683e e2d2 ffbe 9e1b bdbd
00000340: bb57 b1bd 3ce6 04be 1541 9d3e 028d 9b3d
00000350: 9c47 583e 41c1 cd3d f9cc 473e f093 05bd
00000360: 8da1 84bc 75d0 193e f989 50be 9059 0d3e
00000370: b226 eabd 6bce 4cbf 757b 6fbe 11b5 883e
00000380: 874b 973e a47e 20be c963 49be 3c21 053e
00000390: 4fb8 4fbe b16d 11bf 4797 87bd e349 ac3e
000003a0: a259 8c3e dce3 f83d ee84 bdbe b0ef 00bd
000003b0: 639e 49be 9599 b03e fdc9 d83d 1331 03bf
000003c0: 9937 c53d f72b 35bf 361b af3d b1d7 2cbe
000003d0: 634c 243e 5da2 57be 4c40 13be 4bc1 453e
000003e0: 513a 26bf 1a19 083e a761 693e b3ad 973d
000003f0: ce90 3dbf 0a00 9f3e 9bd1 19bf f881 0c3c
-0.2428434 0.4991775 -0.08414083 -0.63324165 -0.67529273 -0.37387416 -0.15308598 -0.0894129
-0.41617575 -0.19377685 0.14685363 -0.12575331 0.041194644 -0.15036234 0.2275808 -0.068474405
-0.13479988 -0.2040556 0.20754197 0.13730104 -0.43112975 -0.026083708 0.38551396 -0.38552713
0.00486118 -0.3139233 0.21143137 0.2557141 0.06907247 -0.18918328 -0.299967 0.20580013
0.025293963 -0.40486023 0.2221297 -0.16219658 0.06528382 -0.24977204 0.20310138 -0.00843416
0.02176419 0.016372433 -0.10722716 -0.08896952 -0.39108473 -0.5619753 -0.07909782 0.22499815
-0.013856834 0.16498183 0.31266 0.2694043 -0.4376756 0.039289143 0.36440688 -0.47905698
-0.65075517 -0.0050867 -0.2898607 -0.053110935 0.15796459 0.016047606 0.060948957 -0.11159966
0.2582985 -0.17439178 -0.074187 0.08463646 -0.2930949 0.333851 0.095332764 -0.06523488
4.3015025e-05 0.39544973 -0.5718594 -0.12463276 -0.21949707 -0.064483725 -0.29820523 0.07460657
-0.456879 -0.41069502 -0.5382871 -0.40046918 -0.00045325977 0.3067076 -0.330039 -0.09669082
-0.052134793 0.13274343 -0.47062683 -0.09718496 -0.30332404 0.47181633 -0.0055363094 -0.12457585
0.32896444 0.027176205 -0.10598362 0.096212886 -0.27062052 0.22429912 0.2178923 -0.23546909
-0.32506785 -0.27437684 0.09263611 0.057479933 0.3506585 0.22508454 -0.049493853 -0.17962316
-0.52079767 -0.7397134 -0.44793415 -0.23807015 0.1773816 -0.37036854 -0.47007543 -0.28216255
0.13286024 -0.064220056 0.12386878 -0.35226995 0.16749014 -0.020963319 -0.27749753 -0.09182693
-0.048727646 0.07050404 -0.052214872 0.2906081 -0.121843725 -0.6813789 0.15983146 -0.060453642
-0.3655373 -0.39533108 0.27688527 -0.0676484 0.19017479 0.2877722 0.19209088 0.00602549
-0.41048455 -0.025678119 -0.21653178 -0.38558924 -0.34276256 -0.47959468 -0.006503866 0.362204
-0.111842535 -0.03708812 0.3099761 -0.31159478 0.115736485 -0.30650336 0.027153732 0.16553262
-0.3855602 -0.3302222 -0.3929806 -0.082793586 -0.18115006 0.025071973 0.11680846 0.27815244
0.26763147 -0.21167633 0.0019796493 -0.41667107 0.2829889 0.28970107 0.04231941 -0.7822384
-0.2395234 -0.759654 -0.0062671774 0.19564629 -0.005025474 0.1861686 -0.19418956 0.19685005
-0.28469104 0.07237452 -0.36869493 -0.2110666 0.26000214 -0.055381577 0.4681332 0.043307852
-0.23088951 -0.07849346 -0.15020052 0.037229557 0.29850873 -0.5462748 0.18337922 0.07618425
-0.14052734 0.18526736 0.09678463 -0.09114637 -0.18499887 0.22752203 -0.49965578 -0.09233783
-0.086593114 -0.12978452 0.30713716 0.075952545 0.21121067 0.10046626 0.19511785 -0.032611787
-0.016190315 0.15020926 -0.20365132 0.13803697 -0.11433162 -0.8000247 -0.23386939 0.26700643
0.2954981 -0.1567331 -0.19666971 0.13000959 -0.20285152 -0.56808 -0.06620651 0.3365012
0.27412134 0.12152836 -0.3701548 -0.031478584 -0.19689326 0.34492174 0.10585401 -0.51246756
0.09629745 -0.7077021 0.08550112 -0.16879155 0.16044764 -0.2105803 -0.14379996 0.19312017
-0.64932734 0.13290825 0.22791158 0.07406177 -0.7404908 0.31054717 -0.6008546 0.008575909

layer3.bias f4 [10]
00000000: e37c 4cbe 6347 41be fb81 afbd 722b a4bc
00000010: bfc2 a8bc cb73 0b3e 7e29 b1bd cba8 5b3c
00000020: 653d d43e fb6b f23d
-0.19969516 -0.18874888 -0.08569714 -0.020040248 -0.020600675 0.1361839 -0.08650492 0.013406943
0.4145309 0.11837002
